2.Going_Modular/models/05_going_modular_script_mode_tinyvgg_model.pth (torch, 37218 bytes, 10 tensors)

conv_block_1.0.weight f4 [10, 3, 3, 3]
-0.15541121 -0.0019541192 0.19051114 0.041790485 0.028317858 -0.102759175 0.013071984 0.10813316
-0.08219527 -0.018661015 0.045636408 -0.16023046 0.15169185 0.058689237 0.024185106 -0.049905874
-0.010046897 -0.124643594 -0.014871686 -0.09607951 0.19082743 0.07146126 -0.085778855 0.10632499
-0.065276764 0.008787188 0.117191434 0.14305048 -0.087997295 0.16890222 0.033755127 -0.025674349
-0.09595311 0.024131203 0.09829138 -0.024813663 -0.16032967 -0.07191067 -0.018669456 -0.014129245
-0.12713943 0.14986978 0.08219926 0.1366872 -0.062841445 -0.15548947 0.06519189 0.15868822
0.009032336 0.16755985 0.16868769 0.117609434 -0.052457456 0.1907696 -0.11709508 0.15572196
-0.091992825 -0.09217131 0.14042759 0.035634376 0.033444133 0.14812133 -0.010323422 -0.17213772
-0.103815936 -0.05299515 -0.17486748 0.05151493 -0.090702 0.050962407 -0.1710898 -0.117150575
0.10807162 0.03916462 -0.1556656 0.19799253 -0.072977744 -0.15914452 -0.14894944 0.18955825
-0.0999055 0.15351476 -0.15687425 -0.1804149 -0.07161826 -0.079801 0.16971861 -0.1744688
0.02434217 -0.1768114 0.16907646 0.15392838 0.10951343 0.08741168 -0.1493152 0.20071709
0.09027305 0.094307356 0.01002844 0.02922757 -0.14492653 0.10700223 -0.01862324 0.092343
0.05132018 0.18618442 -0.15571128 0.1643653 0.121760175 -0.17233598 0.07115472 -0.012355838
-0.004486053 0.03174323 0.017580114 0.0006295921 -0.13991868 0.07005153 0.00082250184 0.068576686
-0.0003698263 0.078157514 0.11237221 -0.19644438 0.000997045 -0.064089544 -0.069283515 -0.11437697
-0.16337784 -0.09778539 -0.18195294 0.07748479 -0.1435036 0.08983633 -0.08348535 -0.010645669
0.14745075 0.12911703 -0.09973764 -0.14573474 0.11053271 -0.038687877 -0.039846342 -0.13971026
0.05002123 -0.046795093 -0.19197872 0.073954955 -0.17568858 -0.12467134 -0.14656827 -0.025824526
-0.05254479 0.082087524 -0.17630048 0.17746072 0.14519565 -0.1011804 -0.17411457 -0.15672058
0.14254996 -0.06980255 0.17526042 -0.09377861 0.09766273 -0.0012720717 0.05135854 0.025716968
0.08800332 -0.010709404 -0.09912855 -0.02044246 0.08247896 0.1774153 -0.016591888 -0.062436726
0.0058052903 0.08139896 -0.09576979 0.016201565 0.09975166 -0.0557295 -0.09673483 0.021603474
0.043543585 0.11452053 0.18246633 -0.104510814 0.077073455 -0.0951053 -0.037183437 0.18677996
-0.058173794 -0.10850985 -0.14813906 0.031402133 -0.07093921 0.15248808 -0.0038835462 -0.087007545
-0.010252644 0.1733767 0.14493844 -0.031143224 0.08669558 -0.06270063 0.023038315 0.042232268
0.13824557 0.028951926 0.1639396 0.0663715 0.008679332 -0.02615653 -0.019772356 -0.091487214
0.06558426 0.13413127 0.07115283 0.08862967 0.17672658 0.15199968 0.08563729 0.16989934
-0.021642564 -0.0060997847 -0.012124955 -0.17099364 0.122964986 -0.11163111 0.08498046 -0.18005411
-0.021040112 0.06261129 0.12972258 -0.029004468 -0.12610589 -0.15557621 0.09133807 0.002278502
0.1959988 -0.031695414 0.14600351 0.15828276 0.11657309 -0.1206875 -0.088801645 0.16749568
0.080827944 0.095059454 -0.16431335 0.061340652 0.16009572 -0.113885805 0.08339756 0.06878988
00000000: 1e24 1fbe ae10 00bb 5a15 433e 802c 2b3d
00000010: dafa e73c 6773 d2bd e02b 563c eb74 dd3d
00000020: fe55 a8bd fcde 98bc 3eed 3a3d 7413 24be
00000030: 1c55 1b3e 2064 703d d81f c63c 1a6a 4cbd
00000040: be9b 24bc 2445 ffbd 5fa8 73bc 56c5 c4bd
00000050: 4468 433e 485a 923d d3ac afbd ebc0 d93d
00000060: d3af 85bd 23f8 0f3c 1002 f03d d37b 123e
00000070: ed37 b4bd b4f4 2c3e d142 0a3d 0353 d2bc
00000080: 1083 c4bd cdae c53c fe4c c93d 0646 cbbc
00000090: 762d 24be e745 93bd b0f0 98bc 597e 67bc
000000a0: d730 02be 7777 193e 1658 a83d bbf7 0b3e
000000b0: 04b3 80bd a238 1fbe 5383 853d 2a7f 223e
000000c0: 5dfc 133c cf94 2b3e 77bc 2c3e 37dd f03d
000000d0: a1dd 56bd 1b59 433e 8ccf efbd 9475 1f3e
000000e0: bc66 bcbd 50c4 bcbd 40cc 0f3e 5af5 113d
000000f0: b7fc 083d 1ead 173e 9223 29bc df44 30be
00000100: 739d d4bd 7111 59bd 7610 33be 5201 533d
00000110: f8c1 b9bd f5bd 503d 2a32 2fbe a4ec efbd
00000120: a754 dd3d 156b 203d ce66 1fbe 8ebe 4a3e
00000130: 5b75 95bd c8f6 22be 3486 18be 8f1b 423e
00000140: 419b ccbd f932 1d3e a5a3 20be afbe 38be
00000150: 98ac 92bd b56e a3bd b7ca 2d3e f3a7 32be
00000160: 3b69 c73c 0c0e 35be 6122 2d3e 679f 1d3e
00000170: 9448 e03d e504 b33d 15e6 18be c888 4d3e
00000180: 14e1 b83d 3724 c13d 534e 243c a86e ef3c
00000190: 9f67 14be fc23 db3d c48f 98bc 541e bd3d
000001a0: 1c35 523d 21a7 3e3e c772 1fbe 614f 283e
000001b0: 665d f93d d878 30be 91b9 913d 2470 4abc
000001c0: bdff 92bb 3005 023d 2c04 903c 360b 253a
000001d0: d846 0fbe 2d77 8f3d 2a9d 573a ef71 8c3d
000001e0: 3fe5 c1b9 0c11 a03d 6723 e63d b728 49be
000001f0: 47af 823a 6141 83bd 84e4 8dbd 793e eabd
00000200: 854c 27be b543 c8bd df51 3abe 58b0 9e3d
00000210: 9cf2 12be 1cfc b73d 5efa aabd 2c6b 2ebc
00000220: 54fd 163e 4137 043e 3f43 ccbd 7d3b 15be
00000230: f95e e23d 2e77 1ebd eb35 23bd 3510 0fbe
00000240: 10e3 4c3d 36ac 3fbd 1296 44be b275 973d
00000250: b5e7 33be b053 ffbd fe15 16be f58d d3bc
00000260: 3539 57bd 811d a83d 1d88 34be 43b8 353e
00000270: 2bae 143e ab37 cfbd 174b 32be 5c7b 20be
00000280: 9ef8 113e a4f4 8ebd 7877 333e 000f c0bd
00000290: 6603 c83d a5bb a6ba 555d 523d 64ac d23c
000002a0: 163b b43d 7f76 2fbc e903 cbbd f276 a7bc
000002b0: bbea a83d 5bac 353e b6eb 87bc a7bd 7fbd
000002c0: 4e3a be3b 7fb4 a63d f422 c4bd 25b9 843c
000002d0: 994a cc3d 9e44 64bd e91c c6bd c5f9 b03c
000002e0: c25a 323d bd89 ea3d 74d8 3a3e c409 d6bd
000002f0: b0d8 9d3d 91c6 c2bd a94d 18bd 3f43 3f3e
00000300: a547 6ebd 6a3a debd c4b1 17be 869f 003d
00000310: 9448 91bd d625 1c3e 1883 7ebb 0331 b2bd
00000320: b5fa 27bc a989 313e be6a 143e 1320 ffbc
00000330: 748d b13d 3069 80bd d9ba bc3c befb 2c3d
00000340: 3f90 0d3e 972c ed3c c8df 273e c8ed 873d
00000350: c233 0e3c 3846 d6bc a3f9 a1bc a65d bbbd
00000360: 0a51 863d b559 093e 93b8 913d 7983 b53d
00000370: d0f7 343e cea5 1b3e 9a62 af3d 18fa 2d3e
00000380: bf4b b1bc b4e0 c7bb bfa7 46bc f518 2fbe
00000390: 11d5 fb3d da9e e4bd 3c0a ae3d 1b60 38be
000003a0: 505c acbc 593a 803d ffd5 043e c79a edbc
000003b0: e721 01be 5f4f 1fbe 740f bb3d ec52 153b
000003c0: e9b3 483e 0dd3 01bd f281 153e e014 223e
000003d0: dfbd ee3d 022b f7bd a3dd b5bd fd83 2b3e
000003e0: 1f89 a53d 88ae c23d c241 28be 5640 7b3d
000003f0: 22f0 233e f63c e9bd 57cc aa3d b5e1 8c3d

conv_block_1.0.bias f4 [10]
-0.023115087 0.11266209 0.20924039 -0.06776982 -0.05021404 -0.052564096 0.033067286 0.020843154
-0.04588291 0.11558073
00000000: da5b bdbc 62bb e63d 1d43 563e e7ca 8abd
00000010: 3dad 4dbd 734d 57bd 9071 073d 43bf aa3c
00000020: b8ef 3bbd 97b5 ec3d

conv_block_1.2.weight f4 [10, 10, 3, 3]
0.03275472 -0.039936766 -0.014949128 0.10093264 -0.03252022 0.04039219 0.07107074 0.05408086
0.06613518 -0.042751487 -0.0018657317 0.07081873 -0.09912146 -0.07810611 -0.065691255 -0.066379406
-0.016038649 0.073303975 0.0046656197 0.039673112 0.05770323 -0.092860006 -0.06371359 -0.073385365
0.06216235 0.10955856 0.0771433 -0.100543216 -0.06568 -0.05126166 0.051938746 0.07394525
-0.04658561 0.026752915 0.09503913 -0.06508465 0.056019794 -0.04414881 0.022851558 -0.038307667
0.04998318 -0.059041843 0.032772742 -0.01114057 -0.08431962 -0.08480669 -0.07018534 0.052722048
-0.027378611 0.004537672 0.03582724 -0.003459212 0.04218939 0.043607928 -0.09331027 0.037608217
0.019194694 -0.052557025 0.038591944 0.0128225945 -0.061208233 -0.010238829 -0.060979296 -0.08541787
0.005031881 -0.022825353 -0.049255315 0.016151773 -0.05634208 -0.00818786 0.03242645 -0.10432229
-0.06757959 0.03521442 0.066263385 0.06316865 0.066358216 0.010197551 0.006507116 0.068259306
0.04598004 -0.059525102 0.02068428 -0.092337 -0.020672249 -0.0534694 6.67806e-05 0.048024654
-0.0327577 -0.10041722 -0.024104329 -0.06787557 -0.01431829 -0.10068344 -0.063606635 -0.023843016
-0.0029870754 0.06293926 0.066777885 0.039757643 0.058210704 -0.012026597 0.04845825 0.0061158165
0.11081622 0.021008182 0.018528719 -0.024424627 0.09569479 0.017101392 0.088575065 0.0042638546
-0.064443044 0.04668266 0.106699124 0.045494128 -0.07164958 0.055611253 -0.019155176 -0.07951313
-0.0623103 0.01399561 0.045663815 -0.009627588 -0.009447686 -0.0920632 0.032761503 -0.034596395
0.053120885 -0.03857267 0.01046428 -0.08549258 0.063845575 -0.032294676 -0.062561974 -0.04398547
0.082537204 -0.062342614 0.031182066 -0.054456167 -0.094776504 -0.046226367 -0.052942578 -0.032677826
-0.023607677 -0.016062368 -0.07454577 -0.04699615 1.9974412e-05 0.10119532 -0.06946419 -0.0056828493
-0.01771472 -0.05142627 0.10114491 0.050356515 0.08745873 -0.095578246 -0.015746366 0.09074891
0.083574995 -0.05119939 0.02133726 0.055584732 0.10734762 -0.0074153068 0.068352565 -0.020786826
-0.009734771 -0.05991081 0.009503276 0.0010853563 0.09224107 -0.039036483 -0.04300232 -0.0528015
0.02500287 -0.016819904 0.034714054 0.106307544 0.09252098 0.08945397 -0.075344816 0.043939967
0.021848012 0.03607288 0.06841363 0.05836751 -0.06648557 0.06228892 0.06686298 0.100937955
-0.022265049 -0.091471836 0.08324269 -0.077954926 0.05529893 -0.054002244 0.09105358 -0.013002612
-0.07629753 0.08212856 -0.0057627605 -0.08872862 -0.04573128 -0.03597059 -0.1006188 0.026121205
0.06256008 -0.026667556 -0.042069502 0.0051409295 -0.059397567 0.11534193 0.07916192 0.06280806
-0.015143374 0.07969391 -0.046288844 -0.0490653 -0.049307734 -0.033337057 0.08987531 -0.093827054
0.07210355 -0.013368068 0.09222825 -0.09873726 0.03532903 -0.0033773852 -0.013078584 0.056540504
0.04172535 -0.045153152 0.0951302 0.07758957 -0.0037558442 -0.006404873 0.06791613 0.085840374
0.015211429 -0.006335537 0.028753221 0.09860776 -0.052074205 0.006251251 0.05276391 -0.07718322
0.028208569 -0.031457808 0.111675546 -0.069818765 -0.003925247 -0.04441767 -0.03183602 0.058690052
00000000: d029 063d bc94 23bd 30ed 74bc c6b5 ce3d
00000010: ec33 05bd 4872 253d 898d 913d e483 5d3d
00000020: e271 873d 2f1c 2fbd 918b f4ba 6909 913d
00000030: 3100 cbbd 19f6 9fbd 2389 86bd edf1 87bd
00000040: 7c63 83bc 6520 963d 0ee2 983b 4680 223d
00000050: 395a 6c3d 632d bebd 457c 82bd 114b 96bd
00000060: f39d 7e3d 3d60 e03d 4efd 9d3d 9ae9 cdbd
00000070: 3c83 86bd bff7 51bd b9bd 543d 9b70 973d
00000080: 8dd0 3ebd ee28 db3c e0a3 c23d 1a4b 85bd
00000090: 0375 653d 62d5 34bd 3133 bb3c 80e8 1cbd
000000a0: 2abb 4c3d dcd5 71bd b63c 063d f086 36bc
000000b0: c4af acbd 21af adbd 55bd 8fbd 13f3 573d
000000c0: 1c49 e0bc c0b0 943b 96bf 123d f2b3 62bb
000000d0: c8ce 2c3d 3a9e 323d 7419 bfbd 130b 1a3d
000000e0: 313e 9d3c 0946 57bd 9612 1e3d dc15 523c
000000f0: 7cb5 7abd c3c0 27bc 6dc5 79bd 90ef aebd
00000100: 7ae2 a43b 3cfc babc f1bf 49bd b950 843c
00000110: f4c6 66bd 6026 06bc 99d1 043d eda6 d5bd
00000120: 2b67 8abd ff3c 103d 19b5 873d 915e 813d
00000130: d1e6 873d a113 273c a539 d53b 89cb 8b3d
00000140: 9155 3c3d 98d0 73bd 1472 a93c 2e1b bdbd
00000150: d958 a9bc bb02 5bbd 900c 8c38 80b5 443d
00000160: f02c 06bd 8ba7 cdbd 7176 c5bc 5902 8bbd
00000170: 4397 6abc 1f33 cebd 3244 82bd 6e52 c3bc
00000180: cfc2 43bb 4ce6 803d d8c2 883d e9d8 223d
00000190: 596e 6e3d 340b 45bc 287c 463d 3067 c83b
000001a0: 9df3 e23d 5a19 ac3c 8ac9 973c 2816 c8bc
000001b0: a1fb c33d 3818 8c3c d866 b53d ceb7 8b3b
000001c0: b7fa 83bd 5136 3f3d 1285 da3d 0d58 3a3d
000001d0: 04bd 92bd a0c8 633d 51eb 9cbc c8d7 a2bd
000001e0: 1639 7fbd d84d 653c fb09 3b3d 08bd 1dbc
000001f0: 78ca 1abc a28b bcbd ed30 063d f3b4 0dbd
00000200: 4995 593d 60fe 1dbd 5f72 2b3c bc16 afbd
00000210: 78c1 823d 6c47 04bd 7e20 80bd 1c2a 34bd
00000220: 4409 a93d f85a 7fbd 8871 ff3c 6e0d 5fbd
00000230: 2f1a c2bd dc57 3dbd 51da 58bd 2fd9 05bd
00000240: e364 c1bc 3a95 83bc 74ab 98bd 097f 40bd
00000250: b98e a737 7e3f cf3d 3e43 8ebd 3237 babb
00000260: 761e 91bc 5aa4 52bd 1025 cf3d a242 4e3d
00000270: 901d b33d 87be c3bd 86fe 80bc 91da b93d
00000280: 5e29 ab3d 74b6 51bd 7acb ae3c d1ac 633d
00000290: 12d9 db3d 1afc f2bb 6efc 8b3d 2249 aabc
000002a0: 977e 1fbc 0a65 75bd a1b3 1b3c 8442 8e3a
000002b0: e3e8 bc3d b8e4 1fbd 3323 30bd 6346 58bd
000002c0: d2d2 cc3c e5c9 89bc 5330 0e3d c5b7 d93d
000002d0: a47b bd3d a533 b73d 624e 9abd 65fa 333d
000002e0: 9afa b23c 28c1 133d 721c 8c3d c512 6f3d
000002f0: 9629 88bd ab22 7f3d 75ef 883d 8fb8 ce3d
00000300: 3165 b6bc 9655 bbbd 257b aa3d d5a6 9fbd
00000310: 2181 623d 7531 5dbd 4d7a ba3d e808 55bc
00000320: e141 9cbd 0533 a83d 8ad5 bcbb 5ab7 b5bd
00000330: b950 3bbd e655 13bd 3b11 cebd 23fc d53c
00000340: 801f 803d eb75 dabc 1251 2cbd 3e75 a83b
00000350: dd4a 73bd 6438 ec3d a51f a23d 83a1 803d
00000360: ea1b 78bc 9036 a33d 5f99 3dbd b2f8 48bd
00000370: e8f6 49bd 708c 08bd 8c10 b83d 6628 c0bd
00000380: 07ab 933d be05 5bbc 2ae2 bc3d c336 cabd
00000390: 2cb5 103d 1f57 5dbb 8f47 56bc 0497 673d
000003a0: 33e8 2a3d 83f2 38bd 9fd3 c23d 48e7 9e3d
000003b0: 9c24 76bb f8df d1bb 9d17 8b3d 14cd af3d
000003c0: 5c39 793c 569a cfbb e08b eb3c def2 c93d
000003d0: c34b 55bd 4bd7 cc3b f81e 583d 3c12 9ebd
000003e0: a815 e73c e7d9 00bd 26b6 e43d 24fd 8ebd
000003f0: 5c9f 80bb 4eef 35bd 7d66 02bd fb64 703d

conv_block_1.2.bias f4 [10]
-0.018847656 -0.059609927 -0.096373856 -0.01903164 -0.07272272 0.05912776 0.018633159 0.02000753
0.04744098 0.047273714
00000000: 6666 9abc 8a29 74bd a85f c5bd 3ee8 9bbc
00000010: a6ef 94bd f32f 723d 91a4 983c d5e6 a33c
00000020: 7951 423d 15a2 413d

conv_block_2.0.weight f4 [10, 10, 3, 3]
0.027863078 0.10136584 0.07330275 -0.05640101 -0.08328356 -0.031829275 0.04768976 -0.0096254125
-0.021072708 -0.0908104 0.0003244272 0.09353397 0.078582354 -0.07184754 -0.10310991 -0.038560085
0.018264847 -0.06602053 -0.10140379 0.03703595 -0.023165965 0.066783816 0.03582523 0.07293175
-0.07650029 -0.05781826 0.08858284 -0.102144726 0.08559524 -0.07446156 0.046938263 0.101878755
-0.056684192 0.082149796 -0.06990765 -0.021191433 -0.09244598 -0.094530955 0.04921529 0.01562962
-0.0648628 -0.035538916 -0.09435307 0.030471947 -0.10005111 -0.05157796 0.02808313 -0.08725215
-0.0066876193 0.010277866 -0.04293031 -0.013800138 0.038908526 0.055853955 0.085612506 -0.06547422
-0.021918228 -0.03360177 0.05323126 0.0758073 0.06369092 -0.08067286 -0.111315794 -0.05875291
0.005632257 0.050605156 -0.09029562 0.0015444438 -0.07542779 0.058613174 0.09613647 -0.06746747
-0.076183885 0.041750558 0.030936362 -0.10565827 0.04446588 0.06333737 -0.0068651005 0.048775088
0.00163634 -0.09089216 0.07139625 -0.017721783 -0.11354411 -0.091390185 -0.06494012 0.0004339061
-0.10186288 -0.008789069 0.093227684 0.060308535 -0.019928286 -0.08330552 0.09973786 0.0060204235
-0.06341523 -0.005693966 0.0006862598 0.0881291 -0.03500465 -0.059562404 0.09619598 -0.05341326
-0.03192931 -0.0034120826 0.086930364 0.0076368963 0.029957315 0.043402053 0.10095315 0.017963005
0.10635253 0.01790985 0.095205076 -0.014493668 0.05872955 -0.025417302 0.08498285 -0.059846055
0.09640565 -0.03644668 -0.076070406 -0.035622932 0.024490856 -0.11768279 0.042237036 0.019573882
-0.07640301 0.08917629 0.055449784 -0.025022928 0.08616048 0.07742305 0.03914273 0.09824573
-0.1001691 -0.03814918 -0.031615496 -0.035212453 -0.0021124508 -0.007918123 -0.10195485 0.047421757
0.055412486 -0.08021825 0.022990862 -0.0053386344 0.02056056 -0.10078964 -0.011618227 0.054954607
-0.08338824 -0.046810135 -0.027679931 -0.03192002 -0.08627524 0.033844125 0.065653846 -0.06836484
0.07416784 -0.020477159 -0.024504483 0.042330697 -0.066182494 0.08656327 -0.022959003 0.09099807
0.00563285 0.0907102 0.039684225 -0.02106827 0.06707307 -0.029148841 -0.07710495 -0.07147899
0.056911174 0.059464082 -0.0988284 -0.05223747 0.0128043145 0.08798953 -0.05122912 -0.047229487
0.0007948354 -4.9233437e-05 -0.013322562 -0.1041612 -0.07912305 -0.07235642 -0.061505325 -0.04548296
-0.01813344 -0.011770554 -0.06716639 0.035598584 -0.08854504 0.007461071 0.017832473 -0.023670025
-0.034559302 0.03565011 -0.050092343 0.074641936 -0.08498659 0.048831843 0.045911394 -0.0710263
0.031506233 -0.03538309 -0.055604983 -0.09707112 -0.040686898 0.00287012 -0.024305314 -0.09680583
0.059308372 -0.051754493 -0.09643206 -0.01445549 -0.029389799 -0.10004461 0.072346725 -0.05793348
-0.09342299 -0.008941911 0.083402075 -0.08938556 0.07107865 0.017086081 -0.06768846 0.041173436
-0.0021975413 0.032611765 -0.046758372 -0.09124665 -0.08662204 -0.003647767 0.0041034743 -0.011037037
0.07510223 -0.060976457 -0.08514753 0.061421044 -0.01140172 0.10070839 -0.058860723 -0.027593143
-0.09685088 0.03751918 -0.058434505 0.059648775 0.0033997297 -0.077022724 0.005944535 -0.069813505
00000000: 1c41 e43c e598 cf3d c11f 963d bf04 67bd
00000010: 9290 aabd 6a5f 02bd 5656 433d e8b3 1dbc
00000020: aca0 acbc cefa b9bd e217 aa39 bd8e bf3d
00000030: c9ef a03d ce24 93bd 4a2b d3bd 2ef1 1dbd
00000040: 29a0 953c c635 87bd caac cfbd 02b3 173d
00000050: 8dc6 bdbc f4c5 883d 7abd 123d 3e5d 953d
00000060: 2fac 9cbd d7d2 6cbd ec6a b53d 4131 d1bd
00000070: 8f4c af3d 4d7f 98bd 5642 403d cfa5 d03d
00000080: af2d 68bd 273e a83d be2b 8fbd a899 adbc
00000090: 5154 bdbd 7299 c1bd f995 493d b009 803c
000000a0: cad6 84bd 4191 11bd 2f3c c1bd 4ea0 f93c
000000b0: 99e7 ccbd 6943 53bd 980e e63c 41b1 b2bd
000000c0: d123 dbbb 7f64 283c b1d7 2fbd f919 62bc
000000d0: 8c5e 1f3d 1ec7 643d 9c55 af3d 5917 86bd
000000e0: db8d b3bc 02a2 09bd 0609 5a3d dc40 9b3d
000000f0: 6370 823d d037 a5bd 89f9 e3bd e4a6 70bd
00000100: cc8e b83b 5a47 4f3d e9ec b8bd ef6e ca3a
00000110: e379 9abd 5e14 703d 33e3 c43d 632c 8abd
00000120: 4c06 9cbd a202 2b3d 416e fd3c 5d63 d8bd
00000130: db21 363d 06b7 813d a3f4 e0bb 63c8 473d
00000140: 767a d63a ab25 babd 3238 923d 462d 91bc
00000150: d089 e8bd c72a bbbd 53ff 84bd e47d e339
00000160: 7c9d d0bd 0700 10bc 28ee be3d 1506 773d
00000170: a540 a3bc 169c aabd 5d43 cc3d f946 c53b
00000180: d8df 81bd 7394 babb 1ee6 333a 087d b43d
00000190: 0961 0fbd b5f7 73bd 6602 c53d ddc7 5abd
000001a0: 4fc8 02bd 3f9d 5fbb 8c08 b23d ee3e fa3b
000001b0: 0b69 f53c 5ac6 313d 86c0 ce3d 2727 933c
000001c0: 5bcf d93d aeb7 923c e1fa c23d da76 6dbc
000001d0: 668e 703d f237 d0bc 7d0b ae3d 2321 75bd
000001e0: 5370 c53d 1d49 15bd cdca 9bbd 5ae9 11bd
000001f0: 0ca1 c83c ad03 f1bd be00 2d3d 6859 a03c
00000200: 2e79 9cbd 0fa2 b63d 501f 633d e2fc ccbc
00000210: e874 b03d fa8f 9e3d 2154 203d 0f35 c93d
00000220: 7525 cdbd 5142 1cbd 407f 01bd ef3a 10bd
00000230: 0b71 0abb 04bb 01bc b4cd d0bd 513d 423d
00000240: 34f8 623d 7749 a4bd 5557 bc3c b6ef aebb
00000250: 9f6e a83c cc6a cebd 605a 3ebc 1518 613d
00000260: 74c7 aabd fcbb 3fbd 06c1 e2bc 91be 02bd
00000270: 13b1 b0bd 23a0 0a3d 8675 863d dd02 8cbd
00000280: 4fe5 973d b7bf a7bc a0bd c8bc f462 2d3d
00000290: b08a 87bd 1548 b13d 8514 bcbc 325d ba3d
000002a0: c593 b83b 45c6 b93d ed8b 223d 5d97 acbc
000002b0: 9b5d 893d 8dc9 eebc 33e9 9dbd 9463 92bd
000002c0: b11b 693d 9c90 733d 8b66 cabd f5f6 55bd
000002d0: 30c9 513c db33 b43d a0d5 51bd b573 41bd
000002e0: 805c 503a 0080 4eb8 e046 5abc 7852 d5bd
000002f0: 440b a2bd 9a2f 94bd 02ed 7bbd 574c 3abd
00000300: 948c 94bc 48d9 40bc 888e 89bd d2cf 113d
00000310: 1a57 b5bd 007c f43b 6815 923c a4e7 c1bc
00000320: 0e8e 0dbd da05 123d a12d 4dbd dfdd 983d
00000330: 730d aebd e603 483d 960d 3c3d 3d76 91bd
00000340: ae0c 013d dced 10bd 0dc2 63bd 39cd c6bd
00000350: 4ea7 26bd a018 3c3b f01b c7bc 2342 c6bd
00000360: 56ed 723d 85fc 53bd 2c7e c5bd b8d6 6cbc
00000370: e0c2 f0bc 30e4 ccbd 852a 943d a84b 6dbd
00000380: 8d54 bfbd 1881 12bc b5ce aa3d c70f b7bd
00000390: af91 913d 1cf8 8b3c 3fa0 8abd 7aa5 283d
000003a0: a004 10bb ea93 053d b585 3fbd 86df babd
000003b0: e566 b1bd 600f 6fbb 7076 863b b0d4 34bc
000003c0: 33cf 993d 73c2 79bd d461 aebd a294 7b3d
000003d0: 48ce 3abc 3340 ce3d f117 71bd 040b e2bc
000003e0: c159 c6bd b6ad 193d 0559 6fbd 4652 743d
000003f0: 00ce 5e3b 17be 9dbd 60ca c23b 62fa 8ebd

conv_block_2.0.bias f4 [10]
-0.01331605 0.06161327 -0.08294684 -0.04998787 0.025763638 0.06818846 0.030449426 -0.058174323
0.088205904 -0.08507505
00000000: 902b 5abc 325e 7c3d 08e0 a9bd 15c0 4cbd
00000010: 440e d33c 64a6 8b3d 1371 f93c 3348 6ebd
00000020: 4ca5 b43d d43b aebd

conv_block_2.2.weight f4 [10, 10, 3, 3]
0.0020990202 0.042419095 0.096880734 0.091467515 0.029557295 0.03770482 -0.04696556 0.042937282
-0.009861787 0.08956306 0.005405439 0.09752922 0.02808676 0.0687398 -0.064429305 0.10634336
0.06850052 0.06565916 0.030254044 0.05460485 -0.09023264 0.101531915 0.038220473 -0.0691416
0.06322416 -0.0859491 -0.012349881 0.097358964 -0.03184061 0.026168922 0.06647658 -0.08661105
-0.042105667 0.011826918 0.008781585 -0.023228345 0.091678225 -0.082443886 0.066945925 0.038464665
0.08101047 -0.09277706 0.042005047 -0.014665198 -0.0723196 -0.07424121 0.09204222 -0.0029418245
-0.009753965 0.0733546 0.043319527 -0.040534716 -0.006791002 -0.032611363 -0.025838668 0.04756024
0.058342513 -0.07552163 -0.035269137 0.030967155 0.06642415 0.06490739 -0.06862913 -0.092624806
-0.00015614893 -0.023420615 -0.043937482 -0.036588747 0.01169777 0.029257216 -0.07832078 0.0011450542
-0.049075983 -0.022429435 -0.11038983 0.06619459 0.0795017 0.051524516 0.05026716 -0.11578696
0.05747555 -0.058413003 0.016405953 0.0050130584 -0.10231955 -0.08431099 0.06246693 -0.05414346
-0.04416213 -0.01647561 0.09971101 -0.021296643 -0.104657635 -0.006957434 0.06373375 0.07126849
-0.050708003 0.07041585 0.017419025 0.085977666 0.09991281 -0.008612613 -0.035480414 0.076827474
0.03859651 -0.003541542 0.0753948 0.05513128 0.05841405 0.093397714 0.07551471 0.010792695
0.019778706 0.09306709 0.08350112 -0.0119906515 0.013034567 0.02021649 -0.004316555 -0.015685426
0.063766666 0.057454146 0.10966046 0.017295646 -0.051122546 0.05393967 -0.042261645 -0.054592986
-0.030894058 0.017020743 0.010677446 -0.0927103 -0.01603401 0.073172756 0.080112666 -0.03975784
-0.022130718 -0.10227482 0.009256754 -0.11302538 0.024182389 0.024726896 -0.000853131 0.08508519
0.0031077042 -0.038603667 -0.012541266 0.105606824 0.09757175 0.009219867 -0.03860512 -0.09875886
0.0053071757 0.05593586 0.017620685 -0.027917849 0.0624781 -0.07154776 0.0056320005 0.0710534
0.055195626 0.016135365 -0.04783374 0.032406013 -0.04960112 -0.09665506 -0.1042845 -0.104223885
0.040857542 -0.019362388 -0.075048685 -0.09058224 0.06978067 -0.03374862 0.047330774 -0.037671216
0.079436 0.05828307 -0.07492575 0.061432846 0.03444582 0.10420734 0.041056857 0.015688835
-0.035487615 -0.0816065 0.070345275 0.06950425 -0.052906886 0.023967495 0.083225906 -0.036730144
-0.009896062 0.04544206 -0.069189 -0.006955796 0.054470148 0.09163155 0.04899215 0.024367563
0.008094855 -0.029574491 0.016680762 0.037813388 0.04124684 -0.090766855 0.09720955 -0.03607952
0.050520834 -0.08500356 -0.091824606 0.05532248 0.10639061 0.045455355 -0.0019464656 0.047757257
0.0036477454 0.09900652 0.0050238674 0.0925299 0.07787093 0.0129799275 0.08717016 -0.038780663
0.047801252 -0.056946 0.11257598 0.030326976 0.047340356 0.007783808 0.022269541 0.10469152
0.0057046902 0.0076330486 -0.010057203 0.054152153 -0.098910265 0.03077064 0.0928819 -0.10092018
-0.05015223 -0.09812352 0.03052485 0.0647318 -0.019215986 0.01643719 -0.025375394 -0.11177458
-0.0489894 -0.09843407 -0.006867822 -0.08987372 0.031255607 -0.009286117 -0.06852911 0.08101771
00000000: b78f 093b a5bf 2d3d 6869 c63d 5253 bb3d
00000010: 2422 f23c 5f70 1a3d f65e 40bd 01df 2f3d
00000020: 5593 21bc d66c b73d 1c20 b13b 66bd c73d
00000030: 3416 e63c 74c7 8c3d 83f3 83bd 8cca d93d
00000040: 004a 8c3d 4f78 863d 54d7 f73c 56a9 5f3d
00000050: e4cb b8bd f7ef cf3d 128d 1c3d 1c9a 8dbd
00000060: ab7b 813d 1506 b0bd 2857 4abc 2364 c73d
00000070: 4d6b 02bd 3560 d63c e024 883d 2261 b1bd
00000080: fe76 2cbd b1c5 413c a3e0 0f3c 5f49 bebc
00000090: cbc1 bb3d 57d8 a8bd f21a 893d 208d 1d3d
000000a0: d1e8 a53d e601 bebd 7c0d 2c3d 4c46 70bc
000000b0: 4c1c 94bd c70b 98bd a280 bc3d a0cb 40bb
000000c0: 18cf 1fbc f03a 963d d16f 313d bb07 26bd
000000d0: 0e87 debb 7e93 05bd 9dab d3bc 87ce 423d
000000e0: 8ff8 6e3d 16ab 9abd 5f76 10bd d5ae fd3c
000000f0: 6209 883d 2aee 843d 6e8d 8cbd 13b2 bdbd
00000100: e9bb 23b9 97dc bfbc caf7 33bd 15de 15bd
00000110: 01a8 3f3c d4ac ef3c a566 a0bd a515 963a
00000120: e603 49bd efbd b7bc 1014 e2bd 0791 873d
00000130: cad1 a23d 5f0b 533d f0e4 4d3d b721 edbd
00000140: 7b6b 6b3d 7942 6fbd c765 863c 9544 a43b
00000150: ea8c d1bd 3eab acbd 53dd 7f3d 88c5 5dbd
00000160: 5ae3 34bd dcf7 86bc 4935 cc3d 4c76 aebc
00000170: be56 d6bd 30fb e3bb d786 823d 37f5 913d
00000180: 32b3 4fbd 2f36 903d 58b2 8e3c 0f15 b03d
00000190: 169f cc3d eb1b 0dbc e953 11bd b957 9d3d
000001a0: 6017 1e3d 3719 68bb 9768 9a3d 56d1 613d
000001b0: 9243 6f3d 4d47 bf3d 75a7 9a3d d8d3 303c
000001c0: f406 a23c f599 be3d a302 ab3d 7074 44bc
000001d0: f08e 553c 0d9d a53c e371 8dbb b97e 80bc
000001e0: 1998 823d 0a55 6b3d aa95 e03d 99af 8d3c
000001f0: e065 51bd d8ef 5c3d 8c1a 2dbd e59c 5fbd
00000200: 8915 fdbc 166f 8b3c 74f0 2e3c e6de bdbd
00000210: c259 83bc 99db 953d 1c12 a43d 1ed9 22bd
00000220: 7b4b b5bc 7675 d1bd a4a9 173c da79 e7bd
00000230: 251a c63c 0f90 ca3c a7a4 5fba 2541 ae3d
00000240: a0aa 4b3b e11e 1ebd e279 4dbc 6448 d83d
00000250: b3d3 c73d ed0e 173c 6720 1ebd 1642 cabd
00000260: d1e7 ad3b 001d 653d 4159 903c f9b3 e4bc
00000270: 09e9 7f3d a287 92bd a58c b83b 7284 913d
00000280: cf14 623d 502e 843c 50ed 43bd 2bbc 043d
00000290: 8b2a 4bbd 17f3 c5bd 1d93 d5bd 5573 d5bd
000002a0: 3d5a 273d df9d 9ebc 20b3 99bd 2e83 b9bd
000002b0: 2be9 8e3d fe3b 0abd eadd 413d 224d 1abd
000002c0: 57af a23d 3aba 6e3d ac72 99bd 02a1 7b3d
000002d0: 0f17 0d3d a86a d53d 3c2b 283d df85 803c
000002e0: 765b 11bd 4f21 a7bd 2f11 903d 3f58 8e3d
000002f0: e4b4 58bd 7b57 c43c 5872 aa3d 5972 16bd
00000300: 1823 22bc 7421 3a3d f6b2 8dbd 72ed e3bb
00000310: 171c 5f3d 52a9 bb3d feab 483d 7c9e c73c
00000320: 48a0 043c 3446 f2bc 18a6 883c 36e2 1a3d
00000330: 72f2 283d f9e3 b9bd cd15 c73d 1ec8 13bd
00000340: efee 4e3d 5916 aebd 8a0e bcbd d399 623d
00000350: 52e3 d93d 652f 3a3d 8c20 ffba 1d9d 433d
00000360: 030f 6f3b eec3 ca3d 419f a43b 5180 bd3d
00000370: cb7a 9f3d c3a9 543c 4586 b23d 79d8 1ebd
00000380: 3fcb 433d 3540 69bd 3c8e e63d 4770 f83c
00000390: f6e7 413d 500f ff3b 9d6e b63c 8268 d63d
000003a0: 69ee ba3b a71e fa3b f7c6 24bc a6ce 5d3d
000003b0: 7791 cabd b612 fc3c de38 be3d 3daf cebd
000003c0: 6d6c 4dbd fcf4 c8bd 400f fa3c 1b92 843d
000003d0: d86a 9dbc 49a7 863c 0fe0 cfbc 12ea e4bd
000003e0: 1ca9 48bd cd97 c9bd 770b e1bb b70f b8bd
000003f0: e105 003d cc24 18bc fd58 8cbd 9dec a53d

conv_block_2.2.bias f4 [10]
-0.012463239 -0.081902884 0.07433869 0.038619086 0.069593854 -0.08765784 -0.0541664 0.06849434
-0.0530263 0.08418846
00000000: 9d32 4cbc b3bc a7bd e23e 983d 0c2f 1e3d
00000010: 3987 8e3d f485 b3bd 96dd 5dbd c346 8c3d
00000020: 1b32 59bd 006b ac3d

classifier.1.weight f4 [3, 1690]
-0.011475563 -0.017057091 0.021526545 -0.009908575 0.014288676 -0.019671177 0.0044560838 -0.021481607
-0.023103628 0.01064186 0.01797897 -0.008619893 -0.023139011 0.007990507 -0.019958427 -0.023747995
0.008377078 -0.0053960094 -0.009725768 0.010316195 0.0052459324 -0.009799338 0.013473596 0.0038693838
-0.022931552 0.0012028336 0.013074476 0.013754049 0.010747706 -0.0025591226 -0.026181992 0.0047203684
-0.009708256 0.02099721 0.012553875 -0.003100155 -0.028026622 0.0047935625 -0.026745101 -0.01611057
0.015712213 0.0032509395 -0.016151397 -0.011427424 0.01745926 -0.025479194 -0.020241741 0.0016580923
-0.021160036 0.018749407 -0.020301986 -0.0074187913 0.019439911 -0.006658562 0.0027979636 -0.020975674
-0.0032272453 -0.02548957 -0.011412474 0.010237844 0.012398012 -0.009933714 -0.02014841 -0.0033757112
0.00263855 -0.009653776 -0.0015212252 0.0029826367 -0.022507198 -0.013646912 0.0033363272 0.00901952
0.015183234 0.013299042 -0.013746149 -0.025697744 -0.0014218268 -0.0011888378 -0.0016711227 0.02041496
-0.013438367 0.013344487 0.01827839 -0.0008637555 -0.0021207484 0.0066445903 0.019227771 0.012889354
-0.017092895 -0.0167469 0.0016286449 0.022656227 0.0031880464 0.015564108 0.0028225724 0.014616161
-0.013724545 0.021020027 -0.019037656 0.01023881 0.014829305 -0.017005086 -0.0055021043 -0.011459849
0.016650226 0.018625902 0.016945867 0.011813673 -0.00042572388 0.015274518 0.013020198 -0.0074944803
0.010012218 -0.0063316203 0.017032944 0.011681305 0.012940035 -0.0074457726 0.009255259 -0.013626023
-0.01876541 -0.016587058 0.018591085 -0.02132882 -0.008965294 -0.021560205 0.013074433 0.013034503
0.015084361 -0.0022486264 -0.014036876 -0.001371486 -0.011141478 -0.0073859203 -0.0065036584 -0.024404826
0.015124649 0.0033636403 0.00029416775 0.0073362268 -0.0072237216 -0.00076011266 0.017162492 -0.013714628
0.0083165625 -0.0045004254 0.002646813 0.017444527 0.011430369 -0.005883007 -0.0012971772 0.017338943
0.003479973 -0.010161284 0.0031157988 0.0028050747 0.00986359 0.021386473 -0.0041052713 0.005764039
0.010906535 0.00068566244 -0.017435964 -0.00079491077 -0.012162791 -0.023265991 0.010794603 -0.010098112
-0.019765627 0.01813377 0.018114699 0.023369279 -0.030021183 -0.01978343 -0.012724885 -0.0064579356
-0.0054953634 0.004301536 -0.0016182729 -0.032549042 -0.025920179 -0.02876463 0.029349383 -0.0045728055
-0.016941516 0.00045680048 0.017805753 0.0065534813 -0.013758928 -0.017473562 -0.008340925 -0.00035125818
-0.01688908 -0.023258274 0.0076408563 0.028714243 0.016354559 0.0028449066 0.014542747 -0.017029598
0.00041990288 0.012503139 -0.022949958 -0.015721831 -0.003984072 -0.020410888 -0.015979785 -0.04036322
0.027666183 0.020352451 0.017936738 0.01095907 0.01324808 -0.015249895 -0.009017054 -0.0036261522
-0.019994596 0.014316047 -0.0012730792 -0.010516961 -0.031099983 -0.009656094 -0.0047494187 0.0055826963
-0.01719766 0.01222439 0.0029796252 0.017368956 0.006293523 0.017385744 0.00095116306 -0.003970552
-0.014616609 -0.0007517681 -0.023319144 -0.034650303 0.017266303 -0.013402692 0.023862634 -0.0067899004
-0.019635709 0.019722154 -0.014473954 -0.0068138065 0.00056341395 0.021714952 -0.029783383 0.006630505
0.0066806893 -0.020350609 0.021011954 0.016929368 0.019285755 0.023818534 -0.015295478 0.021493705
00000000: 0004 3cbc 50bb 8bbc 7058 b03c 9357 22bc
00000010: 0d1b 6a3c 7325 a1bc 5704 923b 32fa afbc
00000020: d243 bdbc 325b 2e3c a248 933c 743a 0dbc
00000030: 068e bdbc 9eea 023c db7f a3bc 288b c2bc
00000040: 0340 093c 02d1 b0bb d458 1fbc 4205 293c
00000050: 12e6 ab3b 678d 20bc 5cc0 5c3c 7d95 7d3b
00000060: f3da bbbc 66a8 9d3a 5436 563c aa58 613c
00000070: 2517 303c f4b6 27bb 9e7b d6bc 52ad 9a3b
00000080: 610f 1fbc 5702 ac3c c5ae 4d3c f82b 4bbb
00000090: 1698 e5bc 5113 9d3b 8b18 dbbc 50fa 83bc
000000a0: e6b6 803c b70d 553b ef4f 84bc 173a 3bbc
000000b0: b906 8f3c beb9 d0bc 02d2 a5bc 5854 d93a
000000c0: d057 adbc 5b98 993c 5a50 a6bc 5519 f3bb
000000d0: 7340 9f3c 1130 dabb 0a5e 373b 2dd5 abbc
000000e0: 3180 53bb 81cf d0bc 63fb 3abc a1bc 273c
000000f0: 0821 4b3c 04c1 22bc 470e a5bc 093b 5dbb
00000100: 86eb 2c3b df2a 1ebc d963 c7ba 5778 433b
00000110: 0461 b8bc 4c97 5fbc 48a6 5a3b 9cc6 133c
00000120: 19c3 783c 3ae4 593c 8737 61bc 1384 d2bc
00000130: 975c baba c7d2 9bba 9309 dbba 463d a73c
00000140: 992c 5cbc d6a2 5a3c 90bc 953c a66d 62ba
00000150: 41fc 0abb ddba d93b 8f83 9d3c de2d 533c
00000160: 6606 8cbc cb30 89bc 4178 d53a 8d99 b93c
00000170: 8bee 503b 9a00 7f3c e8fa 383b 9f78 6f3c
00000180: eadc 60bc 3132 ac3c dcf4 9bbc afc0 273c
00000190: 9df6 723c 404e 8bbc ff4a b4bb 17c2 3bbc
000001a0: 0e66 883c 5995 983c 0fd2 8a3c 238e 413c
000001b0: b133 dfb9 f941 7a3c ab52 553c 4294 f5bb
000001c0: 490a 243c 7b79 cfbb ac88 8b3c f262 3f3c
000001d0: 7102 543c abfb f3bb 5fa3 173c af3f 5fbc
000001e0: ebb9 99bc 95e1 87bc 554c 983c c7b9 aebc
000001f0: 2be3 12bc 079f b0bc 2636 563c ab8e 553c
00000200: 6524 773c b15d 13bb edfa 65bc 6fc3 b3ba
00000210: bf8a 36bc 9705 f2bb a41c d5bb a1ec c7bc
00000220: 60cd 773c 8570 5c3b 873a 9a39 bb64 f03b
00000230: f8b4 ecbb 4c42 47ba 5b98 8c3c 52b3 60bc
00000240: 3142 083c 4e78 93bb 2776 2d3b d3e7 8e3c
00000250: 7146 3b3c 3dc6 c0bb 0b06 aaba 660a 8e3c
00000260: 4210 643b 847b 26bc 6e32 4c3b 58d5 373b
00000270: e59a 213c af32 af3c 8385 86bb 43e0 bc3b
00000280: 53b1 323c 07be 333a ded5 8ebc 8f61 50ba
00000290: 7146 47bc 5298 bebc d9db 303c 8d72 25bc
000002a0: 86eb a1bc 468d 943c 4765 943c ee70 bf3c
000002b0: fcee f5bc dc10 a2bc 097c 50bc 179d d3bb
000002c0: 7312 b4bb e6f3 8c3b 3a1c d4ba 2552 05bd
000002d0: 8e56 d4bc cda3 ebbc 1e6e f03c 79d7 95bb
000002e0: efc8 8abc b97e ef39 5fdd 913c 96be d63b
000002f0: 206d 61bc b724 8fbc 60a8 08bc 1329 b8b9
00000300: f85a 8abc 2388 bebc 2660 fa3b 223a eb3c
00000310: fff9 853c 9d71 3a3b b444 6e3c a881 8bbc
00000320: 6926 dc39 f7d9 4c3c 8d01 bcbc 12cb 80bc
00000330: d18c 82bb bc34 a7bc 0ae8 82bc e753 25bd
00000340: 31a4 e23c 2fba a63c 11f0 923c ac8d 333c
00000350: 7a0e 593c b2da 79bc 44bc 13bc bda4 6dbb
00000360: b5cb a3bc da8d 6a3c 73dd a6ba 554f 2cbc
00000370: 64c5 febc 9834 1ebc 03a1 9bbb 0def b63b
00000380: 1be2 8cbc cf48 483c d145 433b 5749 8e3c
00000390: e639 ce3b 8c6c 8e3c 7957 793a 671b 82bb
000003a0: 807a 6fbc 4e12 45ba ca07 bfbc 7aed 0dbd
000003b0: 1072 8d3c f796 5bbc 927b c33c d07d debb
000003c0: 11db a0bc 5b90 a13c 2a24 6dbc 5a46 dfbb
000003d0: 12b2 133a 8ee3 b13c 48fc f3bc b544 d93b
000003e0: afe9 da3b 52b6 a6bc 4321 ac3c 75af 8a3c
000003f0: 29fd 9d3c 161f c33c e299 7abc 9113 b03c

classifier.1.bias f4 [3]
0.022678833 -0.009468313 0.019614581
00000000: f6c8 b93c fc20 1bbc c2ae a03c
